checkpoints/model_weights.safetensors (safetensors, 407376 bytes, 4 tensors)

layer_0 f4 [784, 128]
0	0xbd298bef	-0.041393217
1	0x3bb95353	0.005655685
2	0x3d8dcd8b	0.0692397
3	0xbdea6a6e	-0.11446081
4	0xbc0ef9f7	-0.008726588
5	0x3c6491a9	0.013950744
6	0x3da33b59	0.07970304
7	0xbd99c38c	-0.07508001
8	0x3d908e72	0.07058419
9	0xbd839db7	-0.06426566
10	0xbcf53c0f	-0.029935865
11	0x3d0e5314	0.0347472
12	0x3d5e2429	0.054233704
13	0x3d088e68	0.033338934
14	0xbc1b3d51	-0.009475068
15	0xbd066dce	-0.03281956
16	0xbbcd7a0b	-0.006270652
17	0x3d8c360b	0.068462454
18	0x3d5fa817	0.054603662
19	0x3d4375eb	0.047719877
20	0xbbeed175	-0.007288153
21	0xbd9d02ca	-0.076665476
22	0xbd3f488e	-0.046700053
23	0xbda1b5f1	-0.07896031
24	0x3cbdab7c	0.02315306
25	0xbc9a2a4f	-0.018819002
26	0x3cb27ad3	0.021787083
27	0x3c635af8	0.013876669
28	0xbc887735	-0.016658405
29	0x3d9b1802	0.075729385
30	0x3cad4d2c	0.021154962
31	0x3d935b85	0.0719519
32	0x3d25ab84	0.040446773
33	0xbcec6e5b	-0.028861215
34	0xbda0902c	-0.078399986
35	0xbd39c4e8	-0.0453538
36	0x3da9c55e	0.08289598
37	0xbd4509c8	-0.04810503
38	0x3db64b64	0.08901098
39	0x3c4edf29	0.012626448
40	0x3d83080b	0.063980184
41	0xbd86df9a	-0.06585617
42	0xbcff01ca	-0.031128783
43	0xbc9081ed	-0.017640078
44	0x3d5feef0	0.054671228
45	0xbbc25fb5	-0.0059318193
46	0xbc101ec3	-0.008796397
47	0x3d2baf6a	0.041915335
48	0xbd2fab32	-0.042887874
49	0xbbbd47fc	-0.0057764035
50	0xbda6d406	-0.08145909
51	0x3d1f8438	0.038944453
52	0xbd939f15	-0.07208077
53	0xbc7693c6	-0.01504988
54	0xbd94b3a0	-0.07260823
55	0x3d81fa08	0.06346518
56	0x3dcff449	0.101540156
57	0x3d4de7fd	0.05027007
58	0x3c27c454	0.010239679
59	0xbd00fca6	-0.031490944
60	0x3df601a2	0.1201203
61	0x3d2367bf	0.03989386
62	0xbd1188a6	-0.03553071
63	0xbd6847f1	-0.056709234
64	0xbd8e20c2	-0.06939842
65	0xbd4eaae1	-0.05045593
66	0x3de7be72	0.113156214
67	0x3c32366a	0.010877231
68	0xbda9d664	-0.08292845
69	0xbcc9d105	-0.024635801
70	0x3c88c714	0.01669649
71	0x3d7d4d95	0.061841566
72	0xbd353999	-0.044244383
73	0xbca77cda	-0.020445276
74	0xbdaa4fed	-0.08316026
75	0x37304058	1.0505399e-05
76	0xbd11690d	-0.035500575
77	0xbba1ab33	-0.0049337386
78	0xbca6bef6	-0.02035473
79	0x3b21c9c3	0.002468691
80	0x3d97cb90	0.07411873
81	0xbc9c364d	-0.019068861
82	0xbc0b082d	-0.008485836
83	0x3d7ba5b2	0.061437316
84	0xbda623f8	-0.08112329
85	0xbd6852c6	-0.056719564
86	0x3d80ab4e	0.06282674
87	0x3cd233b1	0.025659414
88	0x3d884b31	0.066549666
89	0x3d7a8727	0.061164048
90	0x3d4911f9	0.049089406
91	0xbd08a26d	-0.033358026
92	0xbd7588d6	-0.05994495
93	0x3d2c26b7	0.04202911
94	0xbd961886	-0.07328896
95	0x3d947baa	0.072501495
96	0x3cf04341	0.029328944
97	0xbcb272cb	-0.021783253
98	0xbd953ed0	-0.07287371
99	0x3d67b753	0.056571316
100	0x3c713a8b	0.01472343
101	0xbc7fa73d	-0.015603838
102	0xbc287355	-0.010281404
103	0xbd6999de	-0.057031505
104	0xbda7405c	-0.081665725
105	0xbc3016df	-0.01074764
106	0x3d12f365	0.03587665
107	0x3db986b2	0.09058894
108	0x3cf479db	0.029843261
109	0xbdae59a1	-0.08513189
110	0x3ae67997	0.0017583844
111	0xbc2010ab	-0.009769599
112	0x3e0803af	0.13282655
113	0xbba5d871	-0.005061202
114	0xbba6db54	-0.005092064
115	0x3c7b387f	0.015333294
116	0xbce0ae4a	-0.027426858
117	0xbd5059d5	-0.05086692
118	0x3d05c29f	0.03265631
119	0xbd02b704	-0.03191282
120	0x3d09a40e	0.03360372
121	0x3d28dc89	0.041225944
122	0x3d0bcd24	0.034131184
123	0x3c1f9603	0.009740355
124	0x3bff4b40	0.007790953
125	0xbd551ebc	-0.052031264
126	0xbd8e7ad0	-0.069570184
127	0xbd4a8e23	-0.04945196
128	0xbcce6912	-0.025196586
129	0x3c91b0e7	0.017784549
130	0xbd78c139	-0.060731146
131	0x3c3db8ab	0.011579673
132	0x3d39a3c0	0.04532218
133	0x3cd22a64	0.025654979
134	0xbd14f342	-0.0363648
135	0x3db11540	0.08646631
136	0xbda63d29	-0.08117134
137	0xbd29e7a0	-0.04148066
138	0x3cee794e	0.029110577
139	0x3b33528c	0.0027362434
140	0xbd5d7c0d	-0.054073382
141	0xbd811ad2	-0.06303944
142	0xbda5295a	-0.08064528
143	0xbd16459b	-0.036687475
144	0xbbbf38d3	-0.0058356314
145	0xbd6b64a1	-0.057469014
146	0x3d8014f0	0.062539935
147	0x3ca92ac7	0.02065028
148	0x3c56fea8	0.013122238
149	0x3d4e0b35	0.050303657
150	0x3b804b61	0.003915236
151	0x3c8d23fd	0.017229075
152	0xbca83cf1	-0.020536872
153	0x3c0fa33a	0.008766944
154	0x3c546059	0.012962424
155	0xbb3e0d08	-0.0028999466
156	0x3ca8ec7b	0.020620575
157	0xbd023667	-0.031790163
158	0xbd464689	-0.04840711
159	0xbd42a99a	-0.047525026
160	0xbd656855	-0.056007702
161	0x3d1bb970	0.038018644
162	0x3d3c1b04	0.0459242
163	0xbda10b75	-0.078635134
164	0xbdcd02b9	-0.10010285
165	0x3d95df8d	0.073180296
166	0x3db6b44e	0.08921109
167	0x3cdfc1eb	0.027314147
168	0xbca12cd0	-0.019674689
169	0x3c2ae11f	0.01042965
170	0xbd8d31c3	-0.06894257
171	0x3d97525c	0.07388756
172	0xbd52a141	-0.051423315
173	0x3d37eed5	0.044905502
174	0xbb9aaa4d	-0.0047200085
175	0x3cc0bcbc	0.023527496
176	0x3d8ed9a9	0.06975109
177	0x3c509973	0.012731898
178	0x3c9e97f1	0.01935956
179	0x3d6290b0	0.055313766
180	0x3d5fdfa3	0.054656636
181	0x3b8945dd	0.0041892366
182	0xbd7dead4	-0.061991528
183	0xbdc2cfc2	-0.09512283
184	0xbd181be4	-0.037135974
185	0x3b863b9d	0.004096462
186	0xbd923fe5	-0.07141093
187	0xbd1a6082	-0.037689693
188	0xbcd8039e	-0.026368912
189	0xbe1420f8	-0.14465702
190	0x3d5d47a8	0.054023415
191	0x3deb895e	0.1150081
192	0x3caea5ce	0.021319296
193	0x3cf6acba	0.03011166
194	0x3d44b28f	0.04802185
195	0xbd736865	-0.05942573
196	0xb97ee62a	-0.0002430907
197	0xbd1d8664	-0.038458243
198	0x3c485b0b	0.012228738
199	0x3d2fadc1	0.042890314
200	0x3d1e4f67	0.038649943
201	0xbd152baf	-0.036418613
202	0xbbb942d2	-0.0056537176
203	0x3d89379f	0.06700062
204	0x3d95628d	0.07294188
205	0xbca75abe	-0.020429011
206	0x3cd9e092	0.026596341
207	0xbd850ea3	-0.06496932
208	0x3ce65cba	0.028120387
209	0x3c3e6d7a	0.011622781
210	0xbc814ae3	-0.01578278
211	0xbbfc74a7	-0.0077043357
212	0x3c08ea26	0.008356607
213	0xbb915c95	-0.0044360855
214	0x3d57e7df	0.052711364
215	0x3cbc401a	0.022979785
216	0xbd9b5416	-0.075843975
217	0xbd5c999c	-0.05385743
218	0xbc8d1b49	-0.017224925
219	0x3d98af09	0.0745526
220	0xbd70e5b8	-0.058812827
221	0xbda75c91	-0.081719525
222	0x3d9dcbf5	0.07704917
223	0x3d7d41a0	0.061830163
224	0xbd900130	-0.070314765
225	0x3c9082f6	0.017640572
226	0xbd5c5fcc	-0.053802297
227	0xbd960352	-0.07324852
228	0xbd80fe43	-0.062984966
229	0xbcd27f89	-0.02569558
230	0xbb9d758d	-0.004805273
231	0x3da41f84	0.08013824
232	0xbd47de4e	-0.04879599
233	0xbda400d0	-0.080079675
234	0x3d11e50e	0.035618834
235	0x3dd45b7f	0.10369014
236	0x3c843a86	0.016141187
237	0x3d060794	0.03272207
238	0x3cafe9f9	0.021473872
239	0xbcf6a17d	-0.0301063
240	0xbd932cf7	-0.07186311
241	0x3de44baf	0.11147248
242	0xbc72d8ca	-0.014822194
243	0x3d3ff145	0.046860952
244	0x3d53f4ec	0.051747248
245	0xbc8639a5	-0.016384909
246	0x3d2e81d6	0.04260429
247	0x3d3e4f81	0.04646254
248	0xbd4a76ff	-0.04942989
249	0x3d94b7a5	0.0726159
250	0xbcd4128a	-0.025887746
251	0x3d699e45	0.057035703
252	0x3cc254d8	0.023722097
253	0xbd6a74be	-0.05724024
254	0xbd2a3ee6	-0.04156389
255	0x3bc750ed	0.006082645

layer_1 f4 [128]
0	0xbb2ae181	-0.0026074352
1	0xbc153edb	-0.009109224
2	0xbbe0ddc5	-0.0068623745
3	0x3bc9c546	0.00615755
4	0xbbb43715	-0.0054997304
5	0xbbf01622	-0.007326857
6	0x00000000	0.0
7	0x3ad78c09	0.0016444932
8	0xbbe2277c	-0.0069016796
9	0xbbfa65cb	-0.007641529
10	0xbbe52e15	-0.006994019
11	0xbb9b201d	-0.004734053
12	0x3bb59718	0.0055416934
13	0xbbc4b82e	-0.0060034012
14	0xbbb6f198	-0.0055829994
15	0xbbf6a794	-0.007527301
16	0xbc0630eb	-0.008190374
17	0xbbb3fc0e	-0.0054926937
18	0xb984338d	-0.0002521541
19	0xbc3ad57f	-0.0114034405
20	0xbc18f3a1	-0.009335429
21	0xbbd811db	-0.0065939254
22	0xbb9ee5f2	-0.004849189
23	0xbbb72df8	-0.0055901967
24	0x398ac52e	0.0002646832
25	0xbbc4a936	-0.006001617
26	0xb9854804	-0.00025421393
27	0x3b9c07bd	0.0047616647
28	0xbbbbb9c5	-0.0057289326
29	0x3b278724	0.0025562728
30	0x3be45b5e	0.0069688996
31	0xbc0a8fe3	-0.008457157
32	0xbba76fbd	-0.005109756
33	0xbb4b1460	-0.0030987486
34	0x3b651e02	0.0034960513
35	0xbb2c7306	-0.0026313676
36	0x3c0168ca	0.007898519
37	0xbbc289df	-0.0059368457
38	0xb9c2dc09	-0.00037166502
39	0xbbc4a655	-0.0060012736
40	0x00000000	0.0
41	0xbc1a979e	-0.009435562
42	0x00000000	0.0
43	0xbba8bbbb	-0.0051493323
44	0xbc1218e1	-0.008917064
45	0xbb50ffeb	-0.003189082
46	0xbbc4ac2e	-0.0060019707
47	0xbbc190c7	-0.0059071514
48	0xbbfabb8b	-0.0076517514
49	0xbbacc9da	-0.005273086
50	0xbc16999e	-0.009191899
51	0xbbdc42ed	-0.0067218454
52	0x39a76a0c	0.00031931733
53	0xbc0613eb	-0.00818346
54	0xbbc4dd41	-0.006007821
55	0x3b9b4ca9	0.004739363
56	0x3b0ba6ab	0.0021309059
57	0x3b894527	0.004189152
58	0xbbf317ee	-0.007418624
59	0xbbd697eb	-0.0065488718
60	0x3b2afbc8	0.0026090015
61	0x3b5988d7	0.0033193135
62	0xbbdcc8b1	-0.0067377915
63	0xbaed9b22	-0.0018127898
64	0xbb5026bd	-0.003176137
65	0xbb7e6532	-0.0038817641
66	0x3b900a68	0.004395772
67	0xbbd295a7	-0.0064265314
68	0x3ae6d30f	0.0017610508
69	0xbb5e7a6e	-0.0033947485
70	0xbbe2a764	-0.006916927
71	0x3bb8bbbe	0.005637615
72	0xbbb0730d	-0.005384809
73	0xbbdb9649	-0.006701265
74	0xbb803df1	-0.003913634
75	0xbb2a3bb5	-0.002597553
76	0xbb4fc44e	-0.00317027
77	0xbb8b5dfb	-0.0042531467
78	0x3ba84568	0.005135227
79	0xbb91fdf4	-0.0044553224
80	0xbbc4af60	-0.0060023516
81	0x3bac573c	0.0052594226
82	0xbba8996e	-0.0051452434
83	0xbc5c4fd7	-0.01344677
84	0xbc09191f	-0.008367806
85	0x3bbeb9a0	0.005820468
86	0xbbe85fbc	-0.0070914906
87	0xbbc4a31e	-0.0060008904
88	0xbb90db25	-0.0044206553
89	0x3936cdb0	0.00017433497
90	0xbc044dca	-0.008075187
91	0x00000000	0.0
92	0xbb956d15	-0.0045601227
93	0xbbfa1ae7	-0.0076326015
94	0xbb559e32	-0.0032595512
95	0x3ad6b241	0.0016380028
96	0xbc0e000c	-0.008667003
97	0xbbe3a25d	-0.0069468454
98	0xbb9b2058	-0.0047340803
99	0xbbc4a948	-0.006001625
100	0xbbd9c9da	-0.006646377
101	0xbbb48bce	-0.00550983
102	0x3bd1fa78	0.006408032
103	0x3b447e5c	0.0029982543
104	0xbbcb2feb	-0.0062007806
105	0xbbb23a54	-0.005439082
106	0x3aa39866	0.0012481331
107	0x3aca7ccf	0.0015448573
108	0xbba73dee	-0.005103818
109	0xbbd842f7	-0.0065997797
110	0xbc1fa339	-0.009743505
111	0xbbdd8e6a	-0.006761362
112	0x3af02550	0.0018321667
113	0x3adc4ba2	0.0016807208
114	0xbc255392	-0.0100907255
115	0x3b321358	0.0027172174
116	0xbb35e11d	-0.0027752586
117	0xbbb6b62b	-0.0055759153
118	0xbbb35ee6	-0.0054739593
119	0xbc23ce5d	-0.009997931
120	0x396a47e2	0.00022342757
121	0xbb0c4fb1	-0.0021409804
122	0xbbc5b49a	-0.0060334923
123	0xbb99d749	-0.0046948534
124	0x00000000	0.0
125	0xbc248c73	-0.010043251
126	0xbb9fbdab	-0.004874905
127	0x3bef7893	0.0073080747

layer_2 f4 [128, 10]
0	0xbe0f99b8	-0.14023483
1	0xba64bc84	-0.0008725601
2	0x3e1dc896	0.15408549
3	0x3e2d7b91	0.16941668
4	0xbd412c92	-0.047161646
5	0xbd93335b	-0.0718753
6	0xbe31171e	-0.17293975
7	0xbdd17680	-0.1022768
8	0xbe0907c4	-0.13381869
9	0xba788382	-0.00094800454
10	0x3e1f8ea3	0.15581755
11	0xbc9f606e	-0.019455161
12	0x3df51014	0.11965957
13	0x3df1262e	0.1177486
14	0x3e1e1c5a	0.15440503
15	0x3d45fdd7	0.048337784
16	0x3e279ead	0.16369124
17	0xbe430ec5	-0.19048603
18	0x3dee5e61	0.11639095
19	0xbdb12390	-0.08649361
20	0xbdd20398	-0.10254592
21	0xbc45d5f4	-0.012074936
22	0xbe156580	-0.145895
23	0x3e3f2b4c	0.1866886
24	0x3ddcfd3a	0.10790487
25	0x3d80123b	0.06253477
26	0x3da55992	0.08073725
27	0xbdff24fc	-0.12458226
28	0xbd92f301	-0.071752556
29	0x3e36e4cf	0.17860721
30	0x3de45bf4	0.11150351
31	0xbe515860	-0.20443869
32	0xbd82ca62	-0.06386258
33	0xbdb53371	-0.08847702
34	0x3e0232e2	0.12714723
35	0x3e820cb8	0.2540033
36	0xbde2fd4e	-0.1108347
37	0xbeb06418	-0.34451365
38	0x3e8765d8	0.26444888
39	0x3d3f6c0a	0.046733893
40	0xbd1af338	-0.037829608
41	0x3d9ccd86	0.07656388
42	0xbe409370	-0.18806243
43	0xbe03a478	-0.12855709
44	0xbdbbad49	-0.09163911
45	0xbd9fb203	-0.07797625
46	0x3dd8b47c	0.105813
47	0x3d4cd690	0.05000931
48	0x3e1e64e1	0.1546817
49	0xbde57b29	-0.112051316
50	0xbe2168c1	-0.15762617
51	0x3d8d6f9e	0.06906055
52	0xbe4eb05f	-0.20184468
53	0xbe03742f	-0.1283729
54	0xbc802a29	-0.015645104
55	0xbe329f63	-0.17443614
56	0xbdb72b67	-0.08943825
57	0x3d53beb9	0.05169556
58	0x3d22f89d	0.039787877
59	0xbd9b4710	-0.075819135
60	0xbde4b7d6	-0.111678764
61	0xbd772224	-0.060335293
62	0x3e3856c9	0.18001856
63	0xbd6df7b8	-0.05809757
64	0xbc862778	-0.016376242
65	0xbdd25734	-0.10270539
66	0x3d5a8164	0.053346053
67	0xbdfe765a	-0.124249175
68	0x3dfbb716	0.1229078
69	0xbbd3bf20	-0.006461993
70	0x3d968706	0.073499724
71	0x3e7f24dd	0.24916406
72	0x3ea74f3b	0.32677636
73	0x3cb9f5c5	0.0227002
74	0xbcbcd628	-0.023051336
75	0x3d1a89a0	0.037728906
76	0x3d8392d8	0.064244926
77	0x3cfdc414	0.030977286
78	0xbe105e27	-0.14098416
79	0xbee3cd32	-0.4449249
80	0x3c366b7a	0.011134023
81	0xbe3a439d	-0.18189855
82	0x3d634264	0.055483237
83	0xbe03df77	-0.12878214
84	0xbe4277e3	-0.18991046
85	0xbdc16423	-0.09442928
86	0x3ccfa5ce	0.025347617
87	0xbda855c2	-0.08219482
88	0xbe26fb6d	-0.16306849
89	0xbc356b49	-0.011072942
90	0xbdda9628	-0.10673171
91	0x3e2a6f9d	0.1664414
92	0x3d7c62d3	0.061617684
93	0xbca37c52	-0.019956741
94	0xbcf83c5a	-0.030302215
95	0xbe4f582b	-0.20248477
96	0xbe0e2179	-0.13879956
97	0x3e35ee8d	0.17766781
98	0xbdf3ff19	-0.119138904
99	0xbe0cc945	-0.13748653
100	0x3c7f4388	0.015580066
101	0x3dfd45fc	0.12366864
102	0x3cb2201a	0.021743823
103	0xbdc429be	-0.09578274
104	0x3dbebdd8	0.093135536
105	0x3e2f600b	0.17126481
106	0x3e280f8f	0.16412185
107	0x3e2273eb	0.15864532
108	0xbdde78e8	-0.10862905
109	0x3d374703	0.044745456
110	0xbc8c8458	-0.01715295
111	0x3d3da8fc	0.046303734
112	0xbbc08143	-0.005874784
113	0xbda6eb48	-0.08150345
114	0x3d22052f	0.039555725
115	0x3e0847b5	0.13308604
116	0xbb0fbe17	-0.002193337
117	0x3e02375e	0.12716433
118	0x3db368f4	0.087602526
119	0x3da50172	0.08056916
120	0xbdd06615	-0.101757206
121	0xbe2c04b6	-0.16798672
122	0xbe88df15	-0.26732698
123	0x39d2c47a	0.00040200708
124	0x3c556c67	0.013026333
125	0x3e86386f	0.2621493
126	0xbde1a4b1	-0.110177405
127	0x3e5e8d78	0.21733654
128	0x3cb11b44	0.021619447
129	0xbd6a0f8e	-0.05714374
130	0xbe2d3199	-0.16913451
131	0xbc8ba30d	-0.017045522
132	0x3cf6adae	0.030112114
133	0xbd622f64	-0.055220976
134	0x3de8f4a0	0.113747835
135	0xbe30ed08	-0.1727792
136	0x3e15ab98	0.14616239
137	0x3de2dbd1	0.11077083
138	0xbd536698	-0.051611513
139	0xbc7ce70d	-0.015435946
140	0x3e494dfb	0.19658653
141	0x3df3716a	0.118868664
142	0xbe51045d	-0.2041182
143	0xbe22dd8a	-0.15904823
144	0xbdb56b38	-0.08858341
145	0xbdcd5dbd	-0.10027645
146	0xbe1f1516	-0.15535387
147	0xbda53d59	-0.08068342
148	0xbdc41be0	-0.09575629
149	0x3e23d323	0.15998511
150	0xbe19d146	-0.15021238
151	0x3df3d54c	0.119059175
152	0xbd3724ed	-0.04471295
153	0xbce031ea	-0.02736755
154	0x3d7c853c	0.0616505
155	0xbe2ead83	-0.17058377
156	0x3d458ad1	0.04822809
157	0xbd6090bc	-0.05482553
158	0x3e210125	0.15723093
159	0xbd94c9aa	-0.07265027
160	0xbc0a4d59	-0.008441293
161	0xbd08065b	-0.033209186
162	0x3e2b31f9	0.16718282
163	0x3d6dfd52	0.058102913
164	0x3d9ef8e9	0.077623196
165	0xbe383c35	-0.17991717
166	0xbdcd48f4	-0.1002368
167	0xbdae2b97	-0.08504408
168	0xbbbbf321	-0.0057357703
169	0x3ba7d822	0.0051222006
170	0xbdb6601b	-0.089050494
171	0xbe504343	-0.20338158
172	0xbd35a182	-0.04434348
173	0x3df89e4e	0.12139569
174	0xbdab3af2	-0.08360852
175	0xbe1ab428	-0.15107787
176	0xbe3eaa83	-0.18619733
177	0xbe032911	-0.12808634
178	0xbdc48f9c	-0.09597704
179	0x3e24ea26	0.16104946
180	0x3e3cc281	0.18433572
181	0xbe881553	-0.2657877
182	0x3e893015	0.26794496
183	0x3deb1891	0.11479295
184	0x3d4d6d2e	0.05015295
185	0xbe3a5def	-0.18199895
186	0x3dccaefa	0.09994312
187	0x3e82348b	0.25430712
188	0x3ab21e87	0.001358942
189	0xbd8b9767	-0.06815987
190	0x3ccae522	0.024767462
191	0xbda3d060	-0.07998729
192	0xbcbcdbb9	-0.02305399
193	0x3ca99a6b	0.020703515
194	0x3dd10d24	0.102075845
195	0xbe18484a	-0.14871326
196	0xbd7f7b14	-0.062373236
197	0x3d1228aa	0.03568331
198	0xbda4d575	-0.08048526
199	0x3e201378	0.15632427
200	0xbdefc4be	-0.117074475
201	0x3d8afcd8	0.06786507
202	0x3d688544	0.056767717
203	0x3e2087e6	0.15676841
204	0xbcb167bb	-0.021655908
205	0xbd4a6727	-0.04941478
206	0x3e1b2f95	0.1515487
207	0xbe477b06	-0.19480523
208	0x3e4d2bc5	0.20036228
209	0xbd33b3a0	-0.043872476
210	0x3e5387a7	0.20657216
211	0x3b6b8cf2	0.0035942164
212	0x3e283611	0.16426875
213	0x3d0e87c6	0.034797452
214	0x3da570df	0.08078169
215	0x3e0db099	0.13836898
216	0x3e334bd0	0.17509389
217	0xbda6c29f	-0.0814259
218	0xba99b573	-0.001172705
219	0xbd7db795	-0.061942656
220	0xbdaee2c6	-0.08539347
221	0x3cec67e7	0.028858138
222	0xbe3084c6	-0.17238149
223	0xbd89af1d	-0.06722853
224	0xbe2a0f59	-0.16607417
225	0xbd988ece	-0.07449113
226	0x3e42249e	0.18959281
227	0x3c9c514b	0.019081732
228	0x3d47ed91	0.048810545
229	0xbda26037	-0.07928508
230	0xbd6452bb	-0.05574296
231	0x3ddf7cc2	0.109124675
232	0xbe43dab4	-0.19126397
233	0x3d099964	0.03359355
234	0x3e22f117	0.15912281
235	0x3e2b543f	0.16731356
236	0x3e220c0f	0.15824912
237	0x3d37a0db	0.044831138
238	0x3c4a0448	0.012330122
239	0xbe3cac7e	-0.18425176
240	0xbe9ca078	-0.30591178
241	0xbe9bd3fc	-0.3043517
242	0xbe905743	-0.28191575
243	0x3e8c1966	0.27363127
244	0x3e85cf34	0.26134646
245	0x3dc4b37a	0.09604545
246	0x3d08bcd9	0.033383224
247	0xbe1dce55	-0.1541074
248	0x3da44671	0.08021248
249	0x3de9975a	0.11405821
250	0xbe0f4e58	-0.1399473
251	0xbe1df455	-0.15425237
252	0xbde0ae9f	-0.10970806
253	0xbe45563e	-0.1927118
254	0x3d1eca96	0.03876742
255	0xbd9c4113	-0.076295994

layer_3 f4 [10]
0	0x3c425be1	0.011862726
1	0xbad5af06	-0.0016302771
2	0xb9a45f4c	-0.0003135152
3	0xbc0fc99b	-0.008776094
4	0xbc1efca2	-0.009703787
5	0x3c227b86	0.009917146
6	0xbbcc9ed8	-0.0062445216
7	0x3a0c8177	0.0005359868
8	0xb8c1697e	-9.2226066e-05
9	0x3c1127aa	0.008859554
